…
 'windows-store-apps' 'winforms' 'winrt-xaml' 'wpf' 'wpf-controls'
 'xamarin' 'xaml' 'xna']
Using trained word embedding with shape: (5000, 50)
Shape of data tensor: (359161, 256)
Shape of labels tensor: (359161, 94)
x_train shape: (287328, 256), y_train shape: (287328, 94)
x_test shape: (71833, 256), y_test shape: (71833, 94)
Train word embedding: True
loss function: binary_crossentropy
Model: "model_1"
_________________________________________________________________
Layer (type)                 Output Shape              Param #   
=================================================================
input_1 (InputLayer)         (None, 256)               0         
_________________________________________________________________
embedding_1 (Embedding)      (None, 256, 50)           250000    
_________________________________________________________________
bidirectional_1 (Bidirection (None, 256, 256)          184320    
_________________________________________________________________
dropout_1 (Dropout)          (None, 256, 256)          0         
_________________________________________________________________
attention_with_context (Atte [(None, 256), (None, 256) 66048     
_________________________________________________________________
dropout_2 (Dropout)          (None, 256)               0         
_________________________________________________________________
dense_1 (Dense)              (None, 94)                24158     
=================================================================
Total params: 524,526
Trainable params: 524,526
Non-trainable params: 0
_________________________________________________________________

Training model...
Without class_weight!

Training took 2h:2m:33s
Extract top words of test data:
loss: 0.031269317744547276
macro_f1: 0.1322404146194458
acc: 0.9899155497550964
categorical_accuracy: 0.5425222516059875
…
