…
 'security' 'sql' 'sqlite' 'testing' 'textview' 'unity3d' 'usb'
 'web-services' 'xamarin']
Using trained word embedding with shape: (5000, 100)
Shape of data tensor: (245650, 256)
Shape of labels tensor: (245650, 82)
x_train shape: (196520, 256), y_train shape: (196520, 82)
x_test shape: (49130, 256), y_test shape: (49130, 82)
Train word embedding: True
loss function: binary_crossentropy
Model: "model_1"
_________________________________________________________________
Layer (type)                 Output Shape              Param #   
=================================================================
input_1 (InputLayer)         (None, 256)               0         
_________________________________________________________________
embedding_1 (Embedding)      (None, 256, 100)          500000    
_________________________________________________________________
bidirectional_1 (Bidirection (None, 256, 256)          235520    
_________________________________________________________________
dropout_1 (Dropout)          (None, 256, 256)          0         
_________________________________________________________________
attention_with_context (Atte [(None, 256), (None, 256) 66048     
_________________________________________________________________
dropout_2 (Dropout)          (None, 256)               0         
_________________________________________________________________
dense_1 (Dense)              (None, 82)                21074     
=================================================================
Total params: 822,642
Trainable params: 822,642
Non-trainable params: 0
_________________________________________________________________

Training model...
Without class_weight!

Training took 1h:13m:59s
Extract top words of test data:
loss: 0.03056608546648835
macro_f1: 0.1671440601348877
acc: 0.9897007346153259
categorical_accuracy: 0.5946061611175537
…
