…
 'tcp' 'testing' 'timer' 'tomcat' 'unit-testing' 'user-interface'
 'web-applications' 'wsdl' 'xml' 'xml-parsing']
Using trained word embedding with shape: (5000, 100)
Shape of data tensor: (235956, 256)
Shape of labels tensor: (235956, 81)
x_train shape: (188764, 256), y_train shape: (188764, 81)
x_test shape: (47192, 256), y_test shape: (47192, 81)
Train word embedding: True
loss function: binary_crossentropy
Model: "model_1"
_________________________________________________________________
Layer (type)                 Output Shape              Param #   
=================================================================
input_1 (InputLayer)         (None, 256)               0         
_________________________________________________________________
embedding_1 (Embedding)      (None, 256, 100)          500000    
_________________________________________________________________
bidirectional_1 (Bidirection (None, 256, 128)          84992     
_________________________________________________________________
dropout_1 (Dropout)          (None, 256, 128)          0         
_________________________________________________________________
attention_with_context (Atte [(None, 128), (None, 256) 16640     
_________________________________________________________________
dropout_2 (Dropout)          (None, 128)               0         
_________________________________________________________________
dense_1 (Dense)              (None, 81)                10449     
=================================================================
Total params: 612,081
Trainable params: 612,081
Non-trainable params: 0
_________________________________________________________________

Training model...
Without class_weight!

Training took 0h:14m:11s
Extract top words of test data:
loss: 0.028147237179609836
macro_f1: 0.20095404982566833
acc: 0.9908013939857483
categorical_accuracy: 0.6265044808387756
…
