…
Using trained word embedding with shape: (5000, 50)
Shape of data tensor: (184238, 256)
Shape of labels tensor: (184238, 82)
x_train shape: (147390, 256), y_train shape: (147390, 82)
x_test shape: (36848, 256), y_test shape: (36848, 82)
Train word embedding: True
loss function: binary_crossentropy
Model: "model_1"
__________________________________________________________________________________________________
Layer (type)                    Output Shape         Param #     Connected to                     
==================================================================================================
input_1 (InputLayer)            (None, 256)          0                                            
__________________________________________________________________________________________________
embedding_1 (Embedding)         (None, 256, 50)      250000      input_1[0][0]                    
__________________________________________________________________________________________________
bidirectional_1 (Bidirectional) (None, 256, 128)     59392       embedding_1[0][0]                
__________________________________________________________________________________________________
dropout_1 (Dropout)             (None, 256, 128)     0           bidirectional_1[0][0]            
__________________________________________________________________________________________________
attention_with_context_v2 (Atte [(None, 82, 128), (N 27008       dropout_1[0][0]                  
__________________________________________________________________________________________________
dropout_2 (Dropout)             (None, 82, 128)      0           attention_with_context_v2[0][0]  
__________________________________________________________________________________________________
lambda_1 (Lambda)               [(None, 128), (None, 0           dropout_2[0][0]                  
__________________________________________________________________________________________________
dense_1 (Dense)                 (None, 1)            129         lambda_1[0][0]                   
__________________________________________________________________________________________________
dense_2 (Dense)                 (None, 1)            129         lambda_1[0][1]                   
__________________________________________________________________________________________________
dense_3 (Dense)                 (None, 1)            129         lambda_1[0][2]                   
__________________________________________________________________________________________________
dense_4 (Dense)                 (None, 1)            129         lambda_1[0][3]                   
__________________________________________________________________________________________________
dense_5 (Dense)                 (None, 1)            129         lambda_1[0][4]                   
__________________________________________________________________________________________________
dense_6 (Dense)                 (None, 1)            129         lambda_1[0][5]                   
__________________________________________________________________________________________________
dense_7 (Dense)                 (None, 1)            129         lambda_1[0][6]                   
__________________________________________________________________________________________________
dense_8 (Dense)                 (None, 1)            129         lambda_1[0][7]                   
__________________________________________________________________________________________________
dense_9 (Dense)                 (None, 1)            129         lambda_1[0][8]                   
__________________________________________________________________________________________________
dense_10 (Dense)                (None, 1)            129         lambda_1[0][9]                   
__________________________________________________________________________________________________
dense_11 (Dense)                (None, 1)            129         lambda_1[0][10]                  
__________________________________________________________________________________________________
dense_12 (Dense)                (None, 1)            129         lambda_1[0][11]                  
__________________________________________________________________________________________________
dense_13 (Dense)                (None, 1)            129         lambda_1[0][12]                  
__________________________________________________________________________________________________
dense_14 (Dense)                (None, 1)            129         lambda_1[0][13]                  
__________________________________________________________________________________________________
dense_15 (Dense)                (None, 1)            129         lambda_1[0][14]                  
__________________________________________________________________________________________________
dense_16 (Dense)                (None, 1)            129         lambda_1[0][15]                  
__________________________________________________________________________________________________
dense_17 (Dense)                (None, 1)            129         lambda_1[0][16]                  
__________________________________________________________________________________________________
dense_18 (Dense)                (None, 1)            129         lambda_1[0][17]                  
__________________________________________________________________________________________________
dense_19 (Dense)                (None, 1)            129         lambda_1[0][18]                  
__________________________________________________________________________________________________
dense_20 (Dense)                (None, 1)            129         lambda_1[0][19]                  
__________________________________________________________________________________________________
dense_21 (Dense)                (None, 1)            129         lambda_1[0][20]                  
__________________________________________________________________________________________________
dense_22 (Dense)                (None, 1)            129         lambda_1[0][21]                  
__________________________________________________________________________________________________
dense_23 (Dense)                (None, 1)            129         lambda_1[0][22]                  
__________________________________________________________________________________________________
dense_24 (Dense)                (None, 1)            129         lambda_1[0][23]                  
__________________________________________________________________________________________________
dense_25 (Dense)                (None, 1)            129         lambda_1[0][24]                  
__________________________________________________________________________________________________
dense_26 (Dense)                (None, 1)            129         lambda_1[0][25]                  
__________________________________________________________________________________________________
dense_27 (Dense)                (None, 1)            129         lambda_1[0][26]                  
__________________________________________________________________________________________________
dense_28 (Dense)                (None, 1)            129         lambda_1[0][27]                  
__________________________________________________________________________________________________
dense_29 (Dense)                (None, 1)            129         lambda_1[0][28]                  
__________________________________________________________________________________________________
dense_30 (Dense)                (None, 1)            129         lambda_1[0][29]                  
__________________________________________________________________________________________________
dense_31 (Dense)                (None, 1)            129         lambda_1[0][30]                  
__________________________________________________________________________________________________
dense_32 (Dense)                (None, 1)            129         lambda_1[0][31]                  
__________________________________________________________________________________________________
dense_33 (Dense)                (None, 1)            129         lambda_1[0][32]                  
__________________________________________________________________________________________________
dense_34 (Dense)                (None, 1)            129         lambda_1[0][33]                  
__________________________________________________________________________________________________
dense_35 (Dense)                (None, 1)            129         lambda_1[0][34]                  
__________________________________________________________________________________________________
dense_36 (Dense)                (None, 1)            129         lambda_1[0][35]                  
__________________________________________________________________________________________________
dense_37 (Dense)                (None, 1)            129         lambda_1[0][36]                  
__________________________________________________________________________________________________
dense_38 (Dense)                (None, 1)            129         lambda_1[0][37]                  
__________________________________________________________________________________________________
dense_39 (Dense)                (None, 1)            129         lambda_1[0][38]                  
__________________________________________________________________________________________________
dense_40 (Dense)                (None, 1)            129         lambda_1[0][39]                  
__________________________________________________________________________________________________
dense_41 (Dense)                (None, 1)            129         lambda_1[0][40]                  
__________________________________________________________________________________________________
dense_42 (Dense)                (None, 1)            129         lambda_1[0][41]                  
__________________________________________________________________________________________________
dense_43 (Dense)                (None, 1)            129         lambda_1[0][42]                  
__________________________________________________________________________________________________
dense_44 (Dense)                (None, 1)            129         lambda_1[0][43]                  
__________________________________________________________________________________________________
dense_45 (Dense)                (None, 1)            129         lambda_1[0][44]                  
__________________________________________________________________________________________________
dense_46 (Dense)                (None, 1)            129         lambda_1[0][45]                  
__________________________________________________________________________________________________
dense_47 (Dense)                (None, 1)            129         lambda_1[0][46]                  
__________________________________________________________________________________________________
dense_48 (Dense)                (None, 1)            129         lambda_1[0][47]                  
__________________________________________________________________________________________________
dense_49 (Dense)                (None, 1)            129         lambda_1[0][48]                  
__________________________________________________________________________________________________
dense_50 (Dense)                (None, 1)            129         lambda_1[0][49]                  
__________________________________________________________________________________________________
dense_51 (Dense)                (None, 1)            129         lambda_1[0][50]                  
__________________________________________________________________________________________________
dense_52 (Dense)                (None, 1)            129         lambda_1[0][51]                  
__________________________________________________________________________________________________
dense_53 (Dense)                (None, 1)            129         lambda_1[0][52]                  
__________________________________________________________________________________________________
dense_54 (Dense)                (None, 1)            129         lambda_1[0][53]                  
__________________________________________________________________________________________________
dense_55 (Dense)                (None, 1)            129         lambda_1[0][54]                  
__________________________________________________________________________________________________
dense_56 (Dense)                (None, 1)            129         lambda_1[0][55]                  
__________________________________________________________________________________________________
dense_57 (Dense)                (None, 1)            129         lambda_1[0][56]                  
__________________________________________________________________________________________________
dense_58 (Dense)                (None, 1)            129         lambda_1[0][57]                  
__________________________________________________________________________________________________
dense_59 (Dense)                (None, 1)            129         lambda_1[0][58]                  
__________________________________________________________________________________________________
dense_60 (Dense)                (None, 1)            129         lambda_1[0][59]                  
__________________________________________________________________________________________________
dense_61 (Dense)                (None, 1)            129         lambda_1[0][60]                  
__________________________________________________________________________________________________
dense_62 (Dense)                (None, 1)            129         lambda_1[0][61]                  
__________________________________________________________________________________________________
dense_63 (Dense)                (None, 1)            129         lambda_1[0][62]                  
__________________________________________________________________________________________________
dense_64 (Dense)                (None, 1)            129         lambda_1[0][63]                  
__________________________________________________________________________________________________
dense_65 (Dense)                (None, 1)            129         lambda_1[0][64]                  
__________________________________________________________________________________________________
dense_66 (Dense)                (None, 1)            129         lambda_1[0][65]                  
__________________________________________________________________________________________________
dense_67 (Dense)                (None, 1)            129         lambda_1[0][66]                  
__________________________________________________________________________________________________
dense_68 (Dense)                (None, 1)            129         lambda_1[0][67]                  
__________________________________________________________________________________________________
dense_69 (Dense)                (None, 1)            129         lambda_1[0][68]                  
__________________________________________________________________________________________________
dense_70 (Dense)                (None, 1)            129         lambda_1[0][69]                  
__________________________________________________________________________________________________
dense_71 (Dense)                (None, 1)            129         lambda_1[0][70]                  
__________________________________________________________________________________________________
dense_72 (Dense)                (None, 1)            129         lambda_1[0][71]                  
__________________________________________________________________________________________________
dense_73 (Dense)                (None, 1)            129         lambda_1[0][72]                  
__________________________________________________________________________________________________
dense_74 (Dense)                (None, 1)            129         lambda_1[0][73]                  
__________________________________________________________________________________________________
dense_75 (Dense)                (None, 1)            129         lambda_1[0][74]                  
__________________________________________________________________________________________________
dense_76 (Dense)                (None, 1)            129         lambda_1[0][75]                  
__________________________________________________________________________________________________
dense_77 (Dense)                (None, 1)            129         lambda_1[0][76]                  
__________________________________________________________________________________________________
dense_78 (Dense)                (None, 1)            129         lambda_1[0][77]                  
__________________________________________________________________________________________________
dense_79 (Dense)                (None, 1)            129         lambda_1[0][78]                  
__________________________________________________________________________________________________
dense_80 (Dense)                (None, 1)            129         lambda_1[0][79]                  
__________________________________________________________________________________________________
dense_81 (Dense)                (None, 1)            129         lambda_1[0][80]                  
__________________________________________________________________________________________________
dense_82 (Dense)                (None, 1)            129         lambda_1[0][81]                  
__________________________________________________________________________________________________
lambda_2 (Lambda)               (None, 82)           0           dense_1[0][0]                    
                                                                 dense_2[0][0]                    
                                                                 dense_3[0][0]                    
                                                                 dense_4[0][0]                    
                                                                 dense_5[0][0]                    
…
