…
 'tcp' 'testing' 'timer' 'tomcat' 'unit-testing' 'user-interface'
 'web-applications' 'wsdl' 'xml' 'xml-parsing']
Using trained word embedding with shape: (5000, 150)
Shape of data tensor: (235956, 256)
Shape of labels tensor: (235956, 81)
x_train shape: (188764, 256), y_train shape: (188764, 81)
x_test shape: (47192, 256), y_test shape: (47192, 81)
Train word embedding: True
loss function: binary_crossentropy
Model: "model_1"
_________________________________________________________________
Layer (type)                 Output Shape              Param #   
=================================================================
input_1 (InputLayer)         (None, 256)               0         
_________________________________________________________________
embedding_1 (Embedding)      (None, 256, 150)          750000    
_________________________________________________________________
bidirectional_1 (Bidirection (None, 256, 256)          286720    
_________________________________________________________________
dropout_1 (Dropout)          (None, 256, 256)          0         
_________________________________________________________________
attention_with_context (Atte [(None, 256), (None, 256) 66048     
_________________________________________________________________
dropout_2 (Dropout)          (None, 256)               0         
_________________________________________________________________
dense_1 (Dense)              (None, 81)                20817     
=================================================================
Total params: 1,123,585
Trainable params: 1,123,585
Non-trainable params: 0
_________________________________________________________________

Training model...
Without class_weight!

Training took 0h:16m:44s
Extract top words of test data:
loss: 0.02789393643109571
macro_f1: 0.2029959112405777
acc: 0.9908880591392517
categorical_accuracy: 0.6369935870170593
…
