…
 'tcp' 'testing' 'timer' 'tomcat' 'unit-testing' 'user-interface'
 'web-applications' 'wsdl' 'xml' 'xml-parsing']
Using trained word embedding with shape: (5000, 200)
Shape of data tensor: (314611, 256)
Shape of labels tensor: (314611, 81)
x_train shape: (251688, 256), y_train shape: (251688, 81)
x_test shape: (62923, 256), y_test shape: (62923, 81)
Train word embedding: True
loss function: binary_crossentropy
Model: "model_1"
_________________________________________________________________
Layer (type)                 Output Shape              Param #   
=================================================================
input_1 (InputLayer)         (None, 256)               0         
_________________________________________________________________
embedding_1 (Embedding)      (None, 256, 200)          1000000   
_________________________________________________________________
bidirectional_1 (Bidirection (None, 256, 256)          337920    
_________________________________________________________________
dropout_1 (Dropout)          (None, 256, 256)          0         
_________________________________________________________________
attention_with_context (Atte [(None, 256), (None, 256) 66048     
_________________________________________________________________
dropout_2 (Dropout)          (None, 256)               0         
_________________________________________________________________
dense_1 (Dense)              (None, 81)                20817     
=================================================================
Total params: 1,424,785
Trainable params: 1,424,785
Non-trainable params: 0
_________________________________________________________________

Training model...
Without class_weight!

Training took 1h:26m:6s
Extract top words of test data:
loss: 0.027187176648195664
macro_f1: 0.1952478140592575
acc: 0.991066038608551
categorical_accuracy: 0.6261303424835205
…
