…
 'windows-store-apps' 'winforms' 'winrt-xaml' 'wpf' 'wpf-controls'
 'xamarin' 'xaml' 'xna']
Using trained word embedding with shape: (5000, 100)
Shape of data tensor: (269372, 256)
Shape of labels tensor: (269372, 94)
x_train shape: (215497, 256), y_train shape: (215497, 94)
x_test shape: (53875, 256), y_test shape: (53875, 94)
Train word embedding: True
loss function: binary_crossentropy
Model: "model_1"
_________________________________________________________________
Layer (type)                 Output Shape              Param #   
=================================================================
input_1 (InputLayer)         (None, 256)               0         
_________________________________________________________________
embedding_1 (Embedding)      (None, 256, 100)          500000    
_________________________________________________________________
bidirectional_1 (Bidirection (None, 256, 128)          84992     
_________________________________________________________________
dropout_1 (Dropout)          (None, 256, 128)          0         
_________________________________________________________________
attention_with_context (Atte [(None, 128), (None, 256) 16640     
_________________________________________________________________
dropout_2 (Dropout)          (None, 128)               0         
_________________________________________________________________
dense_1 (Dense)              (None, 94)                12126     
=================================================================
Total params: 613,758
Trainable params: 613,758
Non-trainable params: 0
_________________________________________________________________

Training model...
Without class_weight!

Training took 0h:13m:58s
Extract top words of test data:
loss: 0.032424104277018605
macro_f1: 0.1340886503458023
acc: 0.9895767569541931
categorical_accuracy: 0.5216705203056335
…
