…
 'security' 'sql' 'sqlite' 'testing' 'textview' 'unity3d' 'usb'
 'web-services' 'xamarin']
Using trained word embedding with shape: (5000, 150)
Shape of data tensor: (245650, 256)
Shape of labels tensor: (245650, 82)
x_train shape: (196520, 256), y_train shape: (196520, 82)
x_test shape: (49130, 256), y_test shape: (49130, 82)
Train word embedding: True
loss function: binary_crossentropy
Model: "model_1"
_________________________________________________________________
Layer (type)                 Output Shape              Param #   
=================================================================
input_1 (InputLayer)         (None, 256)               0         
_________________________________________________________________
embedding_1 (Embedding)      (None, 256, 150)          750000    
_________________________________________________________________
bidirectional_1 (Bidirection (None, 256, 256)          286720    
_________________________________________________________________
dropout_1 (Dropout)          (None, 256, 256)          0         
_________________________________________________________________
attention_with_context (Atte [(None, 256), (None, 256) 66048     
_________________________________________________________________
dropout_2 (Dropout)          (None, 256)               0         
_________________________________________________________________
dense_1 (Dense)              (None, 82)                21074     
=================================================================
Total params: 1,123,842
Trainable params: 1,123,842
Non-trainable params: 0
_________________________________________________________________

Training model...
Without class_weight!

Training took 0h:19m:19s
Extract top words of test data:
loss: 0.03077143357614381
macro_f1: 0.16788192093372345
acc: 0.9896785020828247
categorical_accuracy: 0.5953795909881592
…
