…
 'windows-store-apps' 'winforms' 'winrt-xaml' 'wpf' 'wpf-controls'
 'xamarin' 'xaml' 'xna']
Using trained word embedding with shape: (5000, 150)
Shape of data tensor: (269372, 256)
Shape of labels tensor: (269372, 94)
x_train shape: (215497, 256), y_train shape: (215497, 94)
x_test shape: (53875, 256), y_test shape: (53875, 94)
Train word embedding: True
loss function: binary_crossentropy
Model: "model_1"
_________________________________________________________________
Layer (type)                 Output Shape              Param #   
=================================================================
input_1 (InputLayer)         (None, 256)               0         
_________________________________________________________________
embedding_1 (Embedding)      (None, 256, 150)          750000    
_________________________________________________________________
bidirectional_1 (Bidirection (None, 256, 256)          286720    
_________________________________________________________________
dropout_1 (Dropout)          (None, 256, 256)          0         
_________________________________________________________________
attention_with_context (Atte [(None, 256), (None, 256) 66048     
_________________________________________________________________
dropout_2 (Dropout)          (None, 256)               0         
_________________________________________________________________
dense_1 (Dense)              (None, 94)                24158     
=================================================================
Total params: 1,126,926
Trainable params: 1,126,926
Non-trainable params: 0
_________________________________________________________________

Training model...
Without class_weight!

Training took 0h:21m:41s
Extract top words of test data:
loss: 0.03257003587885412
macro_f1: 0.1413511037826538
acc: 0.9896150231361389
categorical_accuracy: 0.5279071927070618
…
