…
 'windows-store-apps' 'winforms' 'winrt-xaml' 'wpf' 'wpf-controls'
 'xamarin' 'xaml' 'xna']
Using trained word embedding with shape: (5000, 150)
Shape of data tensor: (269372, 256)
Shape of labels tensor: (269372, 94)
x_train shape: (215497, 256), y_train shape: (215497, 94)
x_test shape: (53875, 256), y_test shape: (53875, 94)
Train word embedding: True
loss function: binary_crossentropy
Model: "model_1"
_________________________________________________________________
Layer (type)                 Output Shape              Param #   
=================================================================
input_1 (InputLayer)         (None, 256)               0         
_________________________________________________________________
embedding_1 (Embedding)      (None, 256, 150)          750000    
_________________________________________________________________
bidirectional_1 (Bidirection (None, 256, 128)          110592    
_________________________________________________________________
dropout_1 (Dropout)          (None, 256, 128)          0         
_________________________________________________________________
attention_with_context (Atte [(None, 128), (None, 256) 16640     
_________________________________________________________________
dropout_2 (Dropout)          (None, 128)               0         
_________________________________________________________________
dense_1 (Dense)              (None, 94)                12126     
=================================================================
Total params: 889,358
Trainable params: 889,358
Non-trainable params: 0
_________________________________________________________________

Training model...
Without class_weight!

Training took 0h:14m:9s
Extract top words of test data:
loss: 0.032403338418378905
macro_f1: 0.1372438222169876
acc: 0.9895602464675903
categorical_accuracy: 0.5239350199699402
…
