…
 'tcp' 'testing' 'timer' 'tomcat' 'unit-testing' 'user-interface'
 'web-applications' 'wsdl' 'xml' 'xml-parsing']
Using trained word embedding with shape: (5000, 200)
Shape of data tensor: (314611, 256)
Shape of labels tensor: (314611, 81)
x_train shape: (251688, 256), y_train shape: (251688, 81)
x_test shape: (62923, 256), y_test shape: (62923, 81)
Train word embedding: True
loss function: binary_crossentropy
Model: "model_1"
_________________________________________________________________
Layer (type)                 Output Shape              Param #   
=================================================================
input_1 (InputLayer)         (None, 256)               0         
_________________________________________________________________
embedding_1 (Embedding)      (None, 256, 200)          1000000   
_________________________________________________________________
bidirectional_1 (Bidirection (None, 256, 128)          136192    
_________________________________________________________________
dropout_1 (Dropout)          (None, 256, 128)          0         
_________________________________________________________________
attention_with_context (Atte [(None, 128), (None, 256) 16640     
_________________________________________________________________
dropout_2 (Dropout)          (None, 128)               0         
_________________________________________________________________
dense_1 (Dense)              (None, 81)                10449     
=================================================================
Total params: 1,163,281
Trainable params: 1,163,281
Non-trainable params: 0
_________________________________________________________________

Training model...
Without class_weight!

Training took 0h:17m:33s
Extract top words of test data:
loss: 0.027452683165808452
macro_f1: 0.1946573257446289
acc: 0.9910529255867004
categorical_accuracy: 0.6253675222396851
…
