…
 'security' 'sql' 'sqlite' 'testing' 'textview' 'unity3d' 'usb'
 'web-services' 'xamarin']
Using trained word embedding with shape: (5000, 200)
Shape of data tensor: (184238, 256)
Shape of labels tensor: (184238, 82)
x_train shape: (147390, 256), y_train shape: (147390, 82)
x_test shape: (36848, 256), y_test shape: (36848, 82)
Train word embedding: True
loss function: binary_crossentropy
Model: "model_1"
_________________________________________________________________
Layer (type)                 Output Shape              Param #   
=================================================================
input_1 (InputLayer)         (None, 256)               0         
_________________________________________________________________
embedding_1 (Embedding)      (None, 256, 200)          1000000   
_________________________________________________________________
bidirectional_1 (Bidirection (None, 256, 128)          136192    
_________________________________________________________________
dropout_1 (Dropout)          (None, 256, 128)          0         
_________________________________________________________________
attention_with_context (Atte [(None, 128), (None, 256) 16640     
_________________________________________________________________
dropout_2 (Dropout)          (None, 128)               0         
_________________________________________________________________
dense_1 (Dense)              (None, 82)                10578     
=================================================================
Total params: 1,163,410
Trainable params: 1,163,410
Non-trainable params: 0
_________________________________________________________________

Training model...
Without class_weight!

Training took 0h:10m:50s
Extract top words of test data:
loss: 0.030013800468870054
macro_f1: 0.17398139834403992
acc: 0.9900795817375183
categorical_accuracy: 0.6028278470039368
…
