…
 'windows-store-apps' 'winforms' 'winrt-xaml' 'wpf' 'wpf-controls'
 'xamarin' 'xaml' 'xna']
Using trained word embedding with shape: (5000, 200)
Shape of data tensor: (269372, 256)
Shape of labels tensor: (269372, 94)
x_train shape: (215497, 256), y_train shape: (215497, 94)
x_test shape: (53875, 256), y_test shape: (53875, 94)
Train word embedding: True
loss function: binary_crossentropy
Model: "model_1"
_________________________________________________________________
Layer (type)                 Output Shape              Param #   
=================================================================
input_1 (InputLayer)         (None, 256)               0         
_________________________________________________________________
embedding_1 (Embedding)      (None, 256, 200)          1000000   
_________________________________________________________________
bidirectional_1 (Bidirection (None, 256, 256)          337920    
_________________________________________________________________
dropout_1 (Dropout)          (None, 256, 256)          0         
_________________________________________________________________
attention_with_context (Atte [(None, 256), (None, 256) 66048     
_________________________________________________________________
dropout_2 (Dropout)          (None, 256)               0         
_________________________________________________________________
dense_1 (Dense)              (None, 94)                24158     
=================================================================
Total params: 1,428,126
Trainable params: 1,428,126
Non-trainable params: 0
_________________________________________________________________

Training model...
Without class_weight!

Training took 0h:22m:37s
Extract top words of test data:
loss: 0.0327166204450786
macro_f1: 0.14148618280887604
acc: 0.9896098971366882
categorical_accuracy: 0.5279443264007568
…
