…
 'security' 'sql' 'sqlite' 'testing' 'textview' 'unity3d' 'usb'
 'web-services' 'xamarin']
Using trained word embedding with shape: (5000, 100)
Shape of data tensor: (184238, 256)
Shape of labels tensor: (184238, 82)
x_train shape: (147390, 256), y_train shape: (147390, 82)
x_test shape: (36848, 256), y_test shape: (36848, 82)
Train word embedding: True
loss function: binary_crossentropy
Model: "model_1"
_________________________________________________________________
Layer (type)                 Output Shape              Param #   
=================================================================
input_1 (InputLayer)         (None, 256)               0         
_________________________________________________________________
embedding_1 (Embedding)      (None, 256, 100)          500000    
_________________________________________________________________
bidirectional_1 (Bidirection (None, 256, 128)          84992     
_________________________________________________________________
dropout_1 (Dropout)          (None, 256, 128)          0         
_________________________________________________________________
attention_with_context (Atte [(None, 128), (None, 256) 16640     
_________________________________________________________________
dropout_2 (Dropout)          (None, 128)               0         
_________________________________________________________________
dense_1 (Dense)              (None, 82)                10578     
=================================================================
Total params: 612,210
Trainable params: 612,210
Non-trainable params: 0
_________________________________________________________________

Training model...
Without class_weight!

Training took 0h:11m:26s
Extract top words of test data:
loss: 0.03033082873111205
macro_f1: 0.17601943016052246
acc: 0.9900507926940918
categorical_accuracy: 0.6018236875534058
…
