…
 'security' 'sql' 'sqlite' 'testing' 'textview' 'unity3d' 'usb'
 'web-services' 'xamarin']
Using trained word embedding with shape: (5000, 200)
Shape of data tensor: (245650, 256)
Shape of labels tensor: (245650, 82)
x_train shape: (196520, 256), y_train shape: (196520, 82)
x_test shape: (49130, 256), y_test shape: (49130, 82)
Train word embedding: True
loss function: binary_crossentropy
Model: "model_1"
_________________________________________________________________
Layer (type)                 Output Shape              Param #   
=================================================================
input_1 (InputLayer)         (None, 256)               0         
_________________________________________________________________
embedding_1 (Embedding)      (None, 256, 200)          1000000   
_________________________________________________________________
bidirectional_1 (Bidirection (None, 256, 256)          337920    
_________________________________________________________________
dropout_1 (Dropout)          (None, 256, 256)          0         
_________________________________________________________________
attention_with_context (Atte [(None, 256), (None, 256) 66048     
_________________________________________________________________
dropout_2 (Dropout)          (None, 256)               0         
_________________________________________________________________
dense_1 (Dense)              (None, 82)                21074     
=================================================================
Total params: 1,425,042
Trainable params: 1,425,042
Non-trainable params: 0
_________________________________________________________________

Training model...
Without class_weight!

Training took 0h:19m:59s
Extract top words of test data:
loss: 0.030869281653951003
macro_f1: 0.16735506057739258
acc: 0.9896795749664307
categorical_accuracy: 0.5954610109329224
…
