…
 'windows-store-apps' 'winforms' 'winrt-xaml' 'wpf' 'wpf-controls'
 'xamarin' 'xaml' 'xna']
Using trained word embedding with shape: (5000, 100)
Shape of data tensor: (269372, 256)
Shape of labels tensor: (269372, 94)
x_train shape: (215497, 256), y_train shape: (215497, 94)
x_test shape: (53875, 256), y_test shape: (53875, 94)
Train word embedding: True
loss function: binary_crossentropy
Model: "model_1"
_________________________________________________________________
Layer (type)                 Output Shape              Param #   
=================================================================
input_1 (InputLayer)         (None, 256)               0         
_________________________________________________________________
embedding_1 (Embedding)      (None, 256, 100)          500000    
_________________________________________________________________
bidirectional_1 (Bidirection (None, 256, 256)          235520    
_________________________________________________________________
dropout_1 (Dropout)          (None, 256, 256)          0         
_________________________________________________________________
attention_with_context (Atte [(None, 256), (None, 256) 66048     
_________________________________________________________________
dropout_2 (Dropout)          (None, 256)               0         
_________________________________________________________________
dense_1 (Dense)              (None, 94)                24158     
=================================================================
Total params: 825,726
Trainable params: 825,726
Non-trainable params: 0
_________________________________________________________________

Training model...
Without class_weight!

Training took 0h:20m:55s
Extract top words of test data:
loss: 0.032403375131970495
macro_f1: 0.13927710056304932
acc: 0.9896367192268372
categorical_accuracy: 0.5280185341835022
…
